# ðŸ§  é¢„æœŸå‚æ•°é‡: 2.8M - 2.9M
# ðŸ’» é¢„æœŸ GFLOPs: 10.0 - 10.5
# ðŸŽ¯ ç›®æ ‡: Tricycle mAP â‰¥ 0.20

nc: 6
scales:
  n: [0.50, 0.25, 1024]

# ==================== Backbone ====================
backbone:
  - [-1, 1, Conv, [64, 3, 2]]           # 0-P1/2
  - [-1, 1, Conv, [128, 3, 2]]          # 1-P2/4
  - [-1, 2, C3k2, [256, False, 0.25]]   # 2
  - [-1, 1, Conv, [256, 3, 2]]          # 3-P3/8
  - [-1, 2, C3k2, [512, False, 0.25]]   # 4
  - [-1, 1, Conv, [512, 3, 2]]          # 5-P4/16
  - [-1, 2, C3k2, [512, True]]          # 6
  - [-1, 1, Conv, [1024, 3, 2]]         # 7-P5/32
  - [-1, 2, C3k2, [1024, True]]         # 8
  - [-1, 1, SPPF, [1024, 5]]            # 9
  - [-1, 2, C2PSA, [1024]]              # 10

# ==================== Head ====================
head:
  # === ä¸Šé‡‡æ ·è·¯å¾„ ===
  - [-1, 1, DySample, [2, 'lp']]        # 11 (P5->P4)
  - [[-1, 6], 1, Concat, [1]]           # 12
  - [-1, 2, C3k2, [512, False]]         # 13 (P4 èžåˆ)

  - [-1, 1, DySample, [2, 'lp']]        # 14 (P4->P3)
  - [[-1, 4], 1, Concat, [1]]           # 15
  - [-1, 2, C3k2, [256, False]]         # 16 (P3 è¯­ä¹‰æµ)

  # === Detail Branch ===
  - [1, 1, Conv, [128, 3, 2]]           # 17 (Detail: P2->P3)

  # === LiteGate èžåˆ ===
  - [[16, 17], 1, LiteFrequencyGate, [256]]  # 18 (èžåˆ P3_Sem + Detail)

  # === ä¸‹é‡‡æ ·è¾“å‡ºè·¯å¾„ ===
  - [18, 1, Conv, [256, 3, 2]]          # 19 (P3->P4)
  - [[-1, 13], 1, Concat, [1]]          # 20
  - [-1, 2, C3k2, [512, False]]         # 21 (P4 è¾“å‡º)

  - [-1, 1, Conv, [512, 3, 2]]          # 22 (P4->P5)
  - [[-1, 10], 1, Concat, [1]]          # 23
  - [-1, 2, C3k2, [1024, True]]         # 24 (P5 è¾“å‡º)

  # === Detect å¤´ ===
  - [[18, 21, 24], 1, Detect, [nc]]     # 25 
